kan_model.pt (torch, 38330 bytes, 126 tensors)

psi.0.0.centers f4 [8]
000000 fc 70 ec bf b5 0f c7 bf a2 70 97 bf d2 28 3f bf
       -1.847198 -1.5551668 -1.1831248 -0.7467166
000010 67 46 0f bd 0f 11 0f 3f 57 4c 78 3f 6b 68 f8 3e
       -0.03497925 0.55885404 0.96991485 0.48517165

psi.0.0.weights f4 [8]
000000 c1 a8 f6 3e 80 7e cf 3e e0 05 91 3e 94 70 8e 3d
       0.48175624 0.405262 0.28324795 0.06955066
000010 fa 45 21 be c8 b4 c8 3d a9 6f 77 3e e5 9a 35 bc
       -0.1574935 0.09800106 0.24163689 -0.011084293

psi.0.0.log_gamma f4 [8]
000000 cd 5f 4d be 19 77 50 bd ef 36 ae 3e db 0b 15 3d
       -0.20056076 -0.05089483 0.34026286 0.03638826
000010 e5 c7 b2 3c fa 17 b2 3c 05 97 0e be 1b 69 cc 3d
       0.021823833 0.021739949 -0.13924797 0.09980985

psi.0.1.centers f4 [8]
000000 57 69 cf bf 22 60 aa bf 87 e2 7f bf 18 6e f3 be
       -1.6204022 -1.3310587 -0.9995503 -0.47544932
000010 21 65 96 3e 55 85 e1 3e c9 46 82 3e 9a 3f 99 3e
       0.2937403 0.44047037 0.2544463 0.29931337

psi.0.1.weights f4 [8]
000000 b5 d1 8f be e5 12 42 be e9 7b d3 bd 4c 74 7e bd
       -0.2808968 -0.1895252 -0.10326368 -0.062122628
000010 8a 1d e9 bd 8a d3 be bd b8 d5 7b 39 00 b8 04 bc
       -0.11382587 -0.093176916 0.00024016842 -0.00810051

psi.0.1.log_gamma f4 [8]
000000 fd 05 e3 3b 87 91 1e 3e e0 01 6d 3e b0 5f b7 bd
       0.006928204 0.15485202 0.23145247 -0.08953798
000010 0b 4d eb 3d 97 26 93 3e a1 eb b5 3d de d7 f1 3d
       0.11489304 0.2874038 0.08882833 0.118087515

psi.0.2.centers f4 [8]
000000 be ae c4 bf 55 f4 bf bf 4c 29 84 bf 8b ca 55 3d
       -1.5365827 -1.4996439 -1.0325103 0.052195113
000010 ca c9 be 3e e2 5a 2b 3f 63 72 31 3f 05 f4 93 3f
       0.37263328 0.6693555 0.69315165 1.1558844

psi.0.2.weights f4 [8]
000000 14 2e 2d 3e ff 94 4d 3e a6 94 13 3e a4 48 00 3e
       0.16912109 0.20076369 0.14412174 0.1252771
000010 c3 b5 a7 3d 60 70 9b 3e 82 82 fc 3e d2 b9 c7 bd
       0.08188965 0.30359173 0.4931832 -0.09752239

psi.0.2.log_gamma f4 [8]
000000 41 82 1b 3d 1c 27 0d bc 79 cc e6 3d 87 f4 19 be
       0.037966017 -0.008615281 0.11269469 -0.15034686
000010 7c 89 0a 3e 23 f0 a5 3d 52 d8 33 3e 1c f7 d3 3e
       0.13529009 0.08102443 0.17562988 0.41399467

psi.0.3.centers f4 [8]
000000 0e 8f a6 bf d1 d5 b4 bf 2f 11 85 bf 8d 47 b5 be
       -1.3012407 -1.4127752 -1.0395869 -0.3540615
000010 e7 49 54 be 03 ab 0f 3f f1 ae fa 3e 8d 4a 90 3f
       -0.20731317 0.5612032 0.48961595 1.1272751

psi.0.3.weights f4 [8]
000000 44 e8 64 3d 97 15 c8 3d 89 ca 27 3d 40 76 1e be
       0.05588557 0.09769743 0.040964637 -0.15474796
000010 5c ec d4 be 83 5f 33 be 73 fd bf 3d 73 35 72 be
       -0.41586578 -0.17516904 0.093745135 -0.23653202

psi.0.3.log_gamma f4 [8]
000000 b5 2a 05 3e cb f2 d8 3d 69 d6 7c 3e 1c 33 b4 3e
       0.13004573 0.10593184 0.24691166 0.35195243
000010 31 e5 49 3e 6e 53 c5 be e5 a4 92 3e 94 72 14 3e
       0.19716336 -0.38540214 0.2864143 0.14496833

psi.0.4.centers f4 [8]
000000 1d 5e d2 bf b2 25 b5 bf ea ae 74 bf 27 49 42 bf
       -1.6434971 -1.4152129 -0.955794 -0.7589287
000010 d9 ea b3 3e 0b c9 48 3f d2 c2 8a 3f af 44 c8 3f
       0.35140112 0.7843177 1.0840704 1.564596

psi.0.4.weights f4 [8]
000000 48 82 f4 3e de ba ee 3e 00 2f c9 3e 70 77 87 3e
       0.47755647 0.46626943 0.3929367 0.2645831
000010 48 30 6a be f3 95 50 be 39 fc 81 be d3 3d 2b bf
       -0.2286998 -0.20369701 -0.25387743 -0.6689121

psi.0.4.log_gamma f4 [8]
000000 d0 20 87 be 7a 60 55 be de 99 4f 3e 2c d8 88 3e
       -0.2639222 -0.20837584 0.2027354 0.26727426
000010 3a 89 3b 3e a3 49 07 be 5f 17 14 be 88 ef 93 be
       0.18314067 -0.13211684 -0.1446204 -0.28893685

psi.0.5.centers f4 [8]
000000 56 30 46 bf c8 59 a1 bf 33 79 62 bf d7 80 11 bc
       -0.77417505 -1.2605524 -0.88466185 -0.0088808155
000010 33 3a 9c 3e 4c c8 24 3f 70 e9 24 3f b5 8d a1 3f
       0.30513152 0.6436813 0.644187 1.262137

psi.0.5.weights f4 [8]
000000 9e c7 41 3c ea 3a d6 3d fe 3e ca 3d 44 6d 27 3d
       0.011827378 0.10460456 0.09875296 0.04087569
000010 ae e6 d9 bd 0a e2 55 bd 09 04 cd 3c 57 04 c4 bd
       -0.10639702 -0.05221752 0.025026338 -0.0957114

psi.0.5.log_gamma f4 [8]
000000 3b 94 ba 3d 79 9b 8d 3c e5 2b 2c 3d 29 87 33 3d
       0.09110304 0.01728605 0.04203405 0.04383007
000010 da a4 87 3d 58 99 0d 3d 63 c3 60 3d b2 d6 ce bd
       0.0662324 0.034570068 0.054873835 -0.10099544

psi.1.0.centers f4 [8]
000000 fc 70 ec bf b5 0f c7 bf a2 70 97 bf d2 28 3f bf
       -1.847198 -1.5551668 -1.1831248 -0.7467166
000010 67 46 0f bd 0f 11 0f 3f 57 4c 78 3f 6b 68 f8 3e
       -0.03497925 0.55885404 0.96991485 0.48517165

psi.1.0.weights f4 [8]
000000 c1 a8 f6 3e 80 7e cf 3e e0 05 91 3e 94 70 8e 3d
       0.48175624 0.405262 0.28324795 0.06955066
000010 fa 45 21 be c8 b4 c8 3d a9 6f 77 3e e5 9a 35 bc
       -0.1574935 0.09800106 0.24163689 -0.011084293

psi.1.0.log_gamma f4 [8]
000000 cd 5f 4d be 19 77 50 bd ef 36 ae 3e db 0b 15 3d
       -0.20056076 -0.05089483 0.34026286 0.03638826
000010 e5 c7 b2 3c fa 17 b2 3c 05 97 0e be 1b 69 cc 3d
       0.021823833 0.021739949 -0.13924797 0.09980985

psi.1.1.centers f4 [8]
000000 57 69 cf bf 22 60 aa bf 87 e2 7f bf 18 6e f3 be
       -1.6204022 -1.3310587 -0.9995503 -0.47544932
000010 21 65 96 3e 55 85 e1 3e c9 46 82 3e 9a 3f 99 3e
       0.2937403 0.44047037 0.2544463 0.29931337

psi.1.1.weights f4 [8]
000000 b5 d1 8f be e5 12 42 be e9 7b d3 bd 4c 74 7e bd
       -0.2808968 -0.1895252 -0.10326368 -0.062122628
000010 8a 1d e9 bd 8a d3 be bd b8 d5 7b 39 00 b8 04 bc
       -0.11382587 -0.093176916 0.00024016842 -0.00810051

psi.1.1.log_gamma f4 [8]
000000 fd 05 e3 3b 87 91 1e 3e e0 01 6d 3e b0 5f b7 bd
       0.006928204 0.15485202 0.23145247 -0.08953798
000010 0b 4d eb 3d 97 26 93 3e a1 eb b5 3d de d7 f1 3d
       0.11489304 0.2874038 0.08882833 0.118087515

psi.1.2.centers f4 [8]
000000 be ae c4 bf 55 f4 bf bf 4c 29 84 bf 8b ca 55 3d
       -1.5365827 -1.4996439 -1.0325103 0.052195113
000010 ca c9 be 3e e2 5a 2b 3f 63 72 31 3f 05 f4 93 3f
       0.37263328 0.6693555 0.69315165 1.1558844

psi.1.2.weights f4 [8]
000000 14 2e 2d 3e ff 94 4d 3e a6 94 13 3e a4 48 00 3e
       0.16912109 0.20076369 0.14412174 0.1252771
000010 c3 b5 a7 3d 60 70 9b 3e 82 82 fc 3e d2 b9 c7 bd
       0.08188965 0.30359173 0.4931832 -0.09752239

psi.1.2.log_gamma f4 [8]
000000 41 82 1b 3d 1c 27 0d bc 79 cc e6 3d 87 f4 19 be
       0.037966017 -0.008615281 0.11269469 -0.15034686
000010 7c 89 0a 3e 23 f0 a5 3d 52 d8 33 3e 1c f7 d3 3e
       0.13529009 0.08102443 0.17562988 0.41399467

psi.1.3.centers f4 [8]
000000 0e 8f a6 bf d1 d5 b4 bf 2f 11 85 bf 8d 47 b5 be
       -1.3012407 -1.4127752 -1.0395869 -0.3540615
000010 e7 49 54 be 03 ab 0f 3f f1 ae fa 3e 8d 4a 90 3f
       -0.20731317 0.5612032 0.48961595 1.1272751

psi.1.3.weights f4 [8]
000000 44 e8 64 3d 97 15 c8 3d 89 ca 27 3d 40 76 1e be
       0.05588557 0.09769743 0.040964637 -0.15474796
000010 5c ec d4 be 83 5f 33 be 73 fd bf 3d 73 35 72 be
       -0.41586578 -0.17516904 0.093745135 -0.23653202

psi.1.3.log_gamma f4 [8]
000000 b5 2a 05 3e cb f2 d8 3d 69 d6 7c 3e 1c 33 b4 3e
       0.13004573 0.10593184 0.24691166 0.35195243
000010 31 e5 49 3e 6e 53 c5 be e5 a4 92 3e 94 72 14 3e
       0.19716336 -0.38540214 0.2864143 0.14496833

psi.1.4.centers f4 [8]
000000 1d 5e d2 bf b2 25 b5 bf ea ae 74 bf 27 49 42 bf
       -1.6434971 -1.4152129 -0.955794 -0.7589287
000010 d9 ea b3 3e 0b c9 48 3f d2 c2 8a 3f af 44 c8 3f
       0.35140112 0.7843177 1.0840704 1.564596

psi.1.4.weights f4 [8]
000000 48 82 f4 3e de ba ee 3e 00 2f c9 3e 70 77 87 3e
       0.47755647 0.46626943 0.3929367 0.2645831
000010 48 30 6a be f3 95 50 be 39 fc 81 be d3 3d 2b bf
       -0.2286998 -0.20369701 -0.25387743 -0.6689121

psi.1.4.log_gamma f4 [8]
000000 d0 20 87 be 7a 60 55 be de 99 4f 3e 2c d8 88 3e
       -0.2639222 -0.20837584 0.2027354 0.26727426
000010 3a 89 3b 3e a3 49 07 be 5f 17 14 be 88 ef 93 be
       0.18314067 -0.13211684 -0.1446204 -0.28893685

psi.1.5.centers f4 [8]
000000 56 30 46 bf c8 59 a1 bf 33 79 62 bf d7 80 11 bc
       -0.77417505 -1.2605524 -0.88466185 -0.0088808155
000010 33 3a 9c 3e 4c c8 24 3f 70 e9 24 3f b5 8d a1 3f
       0.30513152 0.6436813 0.644187 1.262137

psi.1.5.weights f4 [8]
000000 9e c7 41 3c ea 3a d6 3d fe 3e ca 3d 44 6d 27 3d
       0.011827378 0.10460456 0.09875296 0.04087569
000010 ae e6 d9 bd 0a e2 55 bd 09 04 cd 3c 57 04 c4 bd
       -0.10639702 -0.05221752 0.025026338 -0.0957114

psi.1.5.log_gamma f4 [8]
000000 3b 94 ba 3d 79 9b 8d 3c e5 2b 2c 3d 29 87 33 3d
       0.09110304 0.01728605 0.04203405 0.04383007
000010 da a4 87 3d 58 99 0d 3d 63 c3 60 3d b2 d6 ce bd
       0.0662324 0.034570068 0.054873835 -0.10099544

psi.2.0.centers f4 [8]
000000 fc 70 ec bf b5 0f c7 bf a2 70 97 bf d2 28 3f bf
       -1.847198 -1.5551668 -1.1831248 -0.7467166
000010 67 46 0f bd 0f 11 0f 3f 57 4c 78 3f 6b 68 f8 3e
       -0.03497925 0.55885404 0.96991485 0.48517165

psi.2.0.weights f4 [8]
000000 c1 a8 f6 3e 80 7e cf 3e e0 05 91 3e 94 70 8e 3d
       0.48175624 0.405262 0.28324795 0.06955066
000010 fa 45 21 be c8 b4 c8 3d a9 6f 77 3e e5 9a 35 bc
       -0.1574935 0.09800106 0.24163689 -0.011084293

psi.2.0.log_gamma f4 [8]
000000 cd 5f 4d be 19 77 50 bd ef 36 ae 3e db 0b 15 3d
       -0.20056076 -0.05089483 0.34026286 0.03638826
000010 e5 c7 b2 3c fa 17 b2 3c 05 97 0e be 1b 69 cc 3d
       0.021823833 0.021739949 -0.13924797 0.09980985

psi.2.1.centers f4 [8]
000000 57 69 cf bf 22 60 aa bf 87 e2 7f bf 18 6e f3 be
       -1.6204022 -1.3310587 -0.9995503 -0.47544932
000010 21 65 96 3e 55 85 e1 3e c9 46 82 3e 9a 3f 99 3e
       0.2937403 0.44047037 0.2544463 0.29931337

psi.2.1.weights f4 [8]
000000 b5 d1 8f be e5 12 42 be e9 7b d3 bd 4c 74 7e bd
       -0.2808968 -0.1895252 -0.10326368 -0.062122628
000010 8a 1d e9 bd 8a d3 be bd b8 d5 7b 39 00 b8 04 bc
       -0.11382587 -0.093176916 0.00024016842 -0.00810051

psi.2.1.log_gamma f4 [8]
000000 fd 05 e3 3b 87 91 1e 3e e0 01 6d 3e b0 5f b7 bd
       0.006928204 0.15485202 0.23145247 -0.08953798
000010 0b 4d eb 3d 97 26 93 3e a1 eb b5 3d de d7 f1 3d
       0.11489304 0.2874038 0.08882833 0.118087515

psi.2.2.centers f4 [8]
000000 be ae c4 bf 55 f4 bf bf 4c 29 84 bf 8b ca 55 3d
       -1.5365827 -1.4996439 -1.0325103 0.052195113
000010 ca c9 be 3e e2 5a 2b 3f 63 72 31 3f 05 f4 93 3f
       0.37263328 0.6693555 0.69315165 1.1558844

psi.2.2.weights f4 [8]
000000 14 2e 2d 3e ff 94 4d 3e a6 94 13 3e a4 48 00 3e
       0.16912109 0.20076369 0.14412174 0.1252771
000010 c3 b5 a7 3d 60 70 9b 3e 82 82 fc 3e d2 b9 c7 bd
       0.08188965 0.30359173 0.4931832 -0.09752239

psi.2.2.log_gamma f4 [8]
000000 41 82 1b 3d 1c 27 0d bc 79 cc e6 3d 87 f4 19 be
       0.037966017 -0.008615281 0.11269469 -0.15034686
000010 7c 89 0a 3e 23 f0 a5 3d 52 d8 33 3e 1c f7 d3 3e
       0.13529009 0.08102443 0.17562988 0.41399467

psi.2.3.centers f4 [8]
000000 0e 8f a6 bf d1 d5 b4 bf 2f 11 85 bf 8d 47 b5 be
       -1.3012407 -1.4127752 -1.0395869 -0.3540615
000010 e7 49 54 be 03 ab 0f 3f f1 ae fa 3e 8d 4a 90 3f
       -0.20731317 0.5612032 0.48961595 1.1272751

psi.2.3.weights f4 [8]
000000 44 e8 64 3d 97 15 c8 3d 89 ca 27 3d 40 76 1e be
       0.05588557 0.09769743 0.040964637 -0.15474796
000010 5c ec d4 be 83 5f 33 be 73 fd bf 3d 73 35 72 be
       -0.41586578 -0.17516904 0.093745135 -0.23653202

psi.2.3.log_gamma f4 [8]
000000 b5 2a 05 3e cb f2 d8 3d 69 d6 7c 3e 1c 33 b4 3e
       0.13004573 0.10593184 0.24691166 0.35195243
000010 31 e5 49 3e 6e 53 c5 be e5 a4 92 3e 94 72 14 3e
       0.19716336 -0.38540214 0.2864143 0.14496833

psi.2.4.centers f4 [8]
000000 1d 5e d2 bf b2 25 b5 bf ea ae 74 bf 27 49 42 bf
       -1.6434971 -1.4152129 -0.955794 -0.7589287
000010 d9 ea b3 3e 0b c9 48 3f d2 c2 8a 3f af 44 c8 3f
       0.35140112 0.7843177 1.0840704 1.564596

psi.2.4.weights f4 [8]
000000 48 82 f4 3e de ba ee 3e 00 2f c9 3e 70 77 87 3e
       0.47755647 0.46626943 0.3929367 0.2645831
000010 48 30 6a be f3 95 50 be 39 fc 81 be d3 3d 2b bf
       -0.2286998 -0.20369701 -0.25387743 -0.6689121

psi.2.4.log_gamma f4 [8]
000000 d0 20 87 be 7a 60 55 be de 99 4f 3e 2c d8 88 3e
       -0.2639222 -0.20837584 0.2027354 0.26727426
000010 3a 89 3b 3e a3 49 07 be 5f 17 14 be 88 ef 93 be
       0.18314067 -0.13211684 -0.1446204 -0.28893685

psi.2.5.centers f4 [8]
000000 56 30 46 bf c8 59 a1 bf 33 79 62 bf d7 80 11 bc
       -0.77417505 -1.2605524 -0.88466185 -0.0088808155
000010 33 3a 9c 3e 4c c8 24 3f 70 e9 24 3f b5 8d a1 3f
       0.30513152 0.6436813 0.644187 1.262137

psi.2.5.weights f4 [8]
000000 9e c7 41 3c ea 3a d6 3d fe 3e ca 3d 44 6d 27 3d
       0.011827378 0.10460456 0.09875296 0.04087569
000010 ae e6 d9 bd 0a e2 55 bd 09 04 cd 3c 57 04 c4 bd
       -0.10639702 -0.05221752 0.025026338 -0.0957114

psi.2.5.log_gamma f4 [8]
000000 3b 94 ba 3d 79 9b 8d 3c e5 2b 2c 3d 29 87 33 3d
       0.09110304 0.01728605 0.04203405 0.04383007
000010 da a4 87 3d 58 99 0d 3d 63 c3 60 3d b2 d6 ce bd
       0.0662324 0.034570068 0.054873835 -0.10099544

psi.3.0.centers f4 [8]
000000 fc 70 ec bf b5 0f c7 bf a2 70 97 bf d2 28 3f bf
       -1.847198 -1.5551668 -1.1831248 -0.7467166
000010 67 46 0f bd 0f 11 0f 3f 57 4c 78 3f 6b 68 f8 3e
       -0.03497925 0.55885404 0.96991485 0.48517165

psi.3.0.weights f4 [8]
000000 c1 a8 f6 3e 80 7e cf 3e e0 05 91 3e 94 70 8e 3d
       0.48175624 0.405262 0.28324795 0.06955066
000010 fa 45 21 be c8 b4 c8 3d a9 6f 77 3e e5 9a 35 bc
       -0.1574935 0.09800106 0.24163689 -0.011084293

psi.3.0.log_gamma f4 [8]
000000 cd 5f 4d be 19 77 50 bd ef 36 ae 3e db 0b 15 3d
       -0.20056076 -0.05089483 0.34026286 0.03638826
000010 e5 c7 b2 3c fa 17 b2 3c 05 97 0e be 1b 69 cc 3d
       0.021823833 0.021739949 -0.13924797 0.09980985

psi.3.1.centers f4 [8]
000000 57 69 cf bf 22 60 aa bf 87 e2 7f bf 18 6e f3 be
       -1.6204022 -1.3310587 -0.9995503 -0.47544932
000010 21 65 96 3e 55 85 e1 3e c9 46 82 3e 9a 3f 99 3e
       0.2937403 0.44047037 0.2544463 0.29931337

psi.3.1.weights f4 [8]
000000 b5 d1 8f be e5 12 42 be e9 7b d3 bd 4c 74 7e bd
       -0.2808968 -0.1895252 -0.10326368 -0.062122628
000010 8a 1d e9 bd 8a d3 be bd b8 d5 7b 39 00 b8 04 bc
       -0.11382587 -0.093176916 0.00024016842 -0.00810051

psi.3.1.log_gamma f4 [8]
000000 fd 05 e3 3b 87 91 1e 3e e0 01 6d 3e b0 5f b7 bd
       0.006928204 0.15485202 0.23145247 -0.08953798
000010 0b 4d eb 3d 97 26 93 3e a1 eb b5 3d de d7 f1 3d
       0.11489304 0.2874038 0.08882833 0.118087515

psi.3.2.centers f4 [8]
000000 be ae c4 bf 55 f4 bf bf 4c 29 84 bf 8b ca 55 3d
       -1.5365827 -1.4996439 -1.0325103 0.052195113
000010 ca c9 be 3e e2 5a 2b 3f 63 72 31 3f 05 f4 93 3f
       0.37263328 0.6693555 0.69315165 1.1558844

psi.3.2.weights f4 [8]
000000 14 2e 2d 3e ff 94 4d 3e a6 94 13 3e a4 48 00 3e
       0.16912109 0.20076369 0.14412174 0.1252771
000010 c3 b5 a7 3d 60 70 9b 3e 82 82 fc 3e d2 b9 c7 bd
       0.08188965 0.30359173 0.4931832 -0.09752239

psi.3.2.log_gamma f4 [8]
000000 41 82 1b 3d 1c 27 0d bc 79 cc e6 3d 87 f4 19 be
       0.037966017 -0.008615281 0.11269469 -0.15034686
000010 7c 89 0a 3e 23 f0 a5 3d 52 d8 33 3e 1c f7 d3 3e
       0.13529009 0.08102443 0.17562988 0.41399467

psi.3.3.centers f4 [8]
000000 0e 8f a6 bf d1 d5 b4 bf 2f 11 85 bf 8d 47 b5 be
       -1.3012407 -1.4127752 -1.0395869 -0.3540615
000010 e7 49 54 be 03 ab 0f 3f f1 ae fa 3e 8d 4a 90 3f
       -0.20731317 0.5612032 0.48961595 1.1272751

psi.3.3.weights f4 [8]
000000 44 e8 64 3d 97 15 c8 3d 89 ca 27 3d 40 76 1e be
       0.05588557 0.09769743 0.040964637 -0.15474796
000010 5c ec d4 be 83 5f 33 be 73 fd bf 3d 73 35 72 be
       -0.41586578 -0.17516904 0.093745135 -0.23653202

psi.3.3.log_gamma f4 [8]
000000 b5 2a 05 3e cb f2 d8 3d 69 d6 7c 3e 1c 33 b4 3e
       0.13004573 0.10593184 0.24691166 0.35195243
000010 31 e5 49 3e 6e 53 c5 be e5 a4 92 3e 94 72 14 3e
       0.19716336 -0.38540214 0.2864143 0.14496833

psi.3.4.centers f4 [8]
000000 1d 5e d2 bf b2 25 b5 bf ea ae 74 bf 27 49 42 bf
       -1.6434971 -1.4152129 -0.955794 -0.7589287
000010 d9 ea b3 3e 0b c9 48 3f d2 c2 8a 3f af 44 c8 3f
       0.35140112 0.7843177 1.0840704 1.564596

psi.3.4.weights f4 [8]
000000 48 82 f4 3e de ba ee 3e 00 2f c9 3e 70 77 87 3e
       0.47755647 0.46626943 0.3929367 0.2645831
000010 48 30 6a be f3 95 50 be 39 fc 81 be d3 3d 2b bf
       -0.2286998 -0.20369701 -0.25387743 -0.6689121

psi.3.4.log_gamma f4 [8]
000000 d0 20 87 be 7a 60 55 be de 99 4f 3e 2c d8 88 3e
       -0.2639222 -0.20837584 0.2027354 0.26727426
000010 3a 89 3b 3e a3 49 07 be 5f 17 14 be 88 ef 93 be
       0.18314067 -0.13211684 -0.1446204 -0.28893685

psi.3.5.centers f4 [8]
000000 56 30 46 bf c8 59 a1 bf 33 79 62 bf d7 80 11 bc
       -0.77417505 -1.2605524 -0.88466185 -0.0088808155
000010 33 3a 9c 3e 4c c8 24 3f 70 e9 24 3f b5 8d a1 3f
       0.30513152 0.6436813 0.644187 1.262137

psi.3.5.weights f4 [8]
000000 9e c7 41 3c ea 3a d6 3d fe 3e ca 3d 44 6d 27 3d
       0.011827378 0.10460456 0.09875296 0.04087569
000010 ae e6 d9 bd 0a e2 55 bd 09 04 cd 3c 57 04 c4 bd
       -0.10639702 -0.05221752 0.025026338 -0.0957114

psi.3.5.log_gamma f4 [8]
000000 3b 94 ba 3d 79 9b 8d 3c e5 2b 2c 3d 29 87 33 3d
       0.09110304 0.01728605 0.04203405 0.04383007
000010 da a4 87 3d 58 99 0d 3d 63 c3 60 3d b2 d6 ce bd
       0.0662324 0.034570068 0.054873835 -0.10099544

psi.4.0.centers f4 [8]
000000 fc 70 ec bf b5 0f c7 bf a2 70 97 bf d2 28 3f bf
       -1.847198 -1.5551668 -1.1831248 -0.7467166
000010 67 46 0f bd 0f 11 0f 3f 57 4c 78 3f 6b 68 f8 3e
       -0.03497925 0.55885404 0.96991485 0.48517165

psi.4.0.weights f4 [8]
000000 c1 a8 f6 3e 80 7e cf 3e e0 05 91 3e 94 70 8e 3d
       0.48175624 0.405262 0.28324795 0.06955066
000010 fa 45 21 be c8 b4 c8 3d a9 6f 77 3e e5 9a 35 bc
       -0.1574935 0.09800106 0.24163689 -0.011084293

psi.4.0.log_gamma f4 [8]
000000 cd 5f 4d be 19 77 50 bd ef 36 ae 3e db 0b 15 3d
       -0.20056076 -0.05089483 0.34026286 0.03638826
000010 e5 c7 b2 3c fa 17 b2 3c 05 97 0e be 1b 69 cc 3d
       0.021823833 0.021739949 -0.13924797 0.09980985

psi.4.1.centers f4 [8]
000000 57 69 cf bf 22 60 aa bf 87 e2 7f bf 18 6e f3 be
       -1.6204022 -1.3310587 -0.9995503 -0.47544932
000010 21 65 96 3e 55 85 e1 3e c9 46 82 3e 9a 3f 99 3e
       0.2937403 0.44047037 0.2544463 0.29931337

psi.4.1.weights f4 [8]
000000 b5 d1 8f be e5 12 42 be e9 7b d3 bd 4c 74 7e bd
       -0.2808968 -0.1895252 -0.10326368 -0.062122628
000010 8a 1d e9 bd 8a d3 be bd b8 d5 7b 39 00 b8 04 bc
       -0.11382587 -0.093176916 0.00024016842 -0.00810051

psi.4.1.log_gamma f4 [8]
000000 fd 05 e3 3b 87 91 1e 3e e0 01 6d 3e b0 5f b7 bd
       0.006928204 0.15485202 0.23145247 -0.08953798
000010 0b 4d eb 3d 97 26 93 3e a1 eb b5 3d de d7 f1 3d
       0.11489304 0.2874038 0.08882833 0.118087515

psi.4.2.centers f4 [8]
000000 be ae c4 bf 55 f4 bf bf 4c 29 84 bf 8b ca 55 3d
       -1.5365827 -1.4996439 -1.0325103 0.052195113
000010 ca c9 be 3e e2 5a 2b 3f 63 72 31 3f 05 f4 93 3f
       0.37263328 0.6693555 0.69315165 1.1558844

psi.4.2.weights f4 [8]
000000 14 2e 2d 3e ff 94 4d 3e a6 94 13 3e a4 48 00 3e
       0.16912109 0.20076369 0.14412174 0.1252771
000010 c3 b5 a7 3d 60 70 9b 3e 82 82 fc 3e d2 b9 c7 bd
       0.08188965 0.30359173 0.4931832 -0.09752239

psi.4.2.log_gamma f4 [8]
000000 41 82 1b 3d 1c 27 0d bc 79 cc e6 3d 87 f4 19 be
       0.037966017 -0.008615281 0.11269469 -0.15034686
000010 7c 89 0a 3e 23 f0 a5 3d 52 d8 33 3e 1c f7 d3 3e
       0.13529009 0.08102443 0.17562988 0.41399467

psi.4.3.centers f4 [8]
000000 0e 8f a6 bf d1 d5 b4 bf 2f 11 85 bf 8d 47 b5 be
       -1.3012407 -1.4127752 -1.0395869 -0.3540615
000010 e7 49 54 be 03 ab 0f 3f f1 ae fa 3e 8d 4a 90 3f
       -0.20731317 0.5612032 0.48961595 1.1272751

psi.4.3.weights f4 [8]
000000 44 e8 64 3d 97 15 c8 3d 89 ca 27 3d 40 76 1e be
       0.05588557 0.09769743 0.040964637 -0.15474796
000010 5c ec d4 be 83 5f 33 be 73 fd bf 3d 73 35 72 be
       -0.41586578 -0.17516904 0.093745135 -0.23653202

psi.4.3.log_gamma f4 [8]
000000 b5 2a 05 3e cb f2 d8 3d 69 d6 7c 3e 1c 33 b4 3e
       0.13004573 0.10593184 0.24691166 0.35195243
000010 31 e5 49 3e 6e 53 c5 be e5 a4 92 3e 94 72 14 3e
       0.19716336 -0.38540214 0.2864143 0.14496833

psi.4.4.centers f4 [8]
000000 1d 5e d2 bf b2 25 b5 bf ea ae 74 bf 27 49 42 bf
       -1.6434971 -1.4152129 -0.955794 -0.7589287
000010 d9 ea b3 3e 0b c9 48 3f d2 c2 8a 3f af 44 c8 3f
       0.35140112 0.7843177 1.0840704 1.564596

psi.4.4.weights f4 [8]
000000 48 82 f4 3e de ba ee 3e 00 2f c9 3e 70 77 87 3e
       0.47755647 0.46626943 0.3929367 0.2645831
000010 48 30 6a be f3 95 50 be 39 fc 81 be d3 3d 2b bf
       -0.2286998 -0.20369701 -0.25387743 -0.6689121

psi.4.4.log_gamma f4 [8]
000000 d0 20 87 be 7a 60 55 be de 99 4f 3e 2c d8 88 3e
       -0.2639222 -0.20837584 0.2027354 0.26727426
000010 3a 89 3b 3e a3 49 07 be 5f 17 14 be 88 ef 93 be
       0.18314067 -0.13211684 -0.1446204 -0.28893685

psi.4.5.centers f4 [8]
000000 56 30 46 bf c8 59 a1 bf 33 79 62 bf d7 80 11 bc
       -0.77417505 -1.2605524 -0.88466185 -0.0088808155
000010 33 3a 9c 3e 4c c8 24 3f 70 e9 24 3f b5 8d a1 3f
       0.30513152 0.6436813 0.644187 1.262137

psi.4.5.weights f4 [8]
000000 9e c7 41 3c ea 3a d6 3d fe 3e ca 3d 44 6d 27 3d
       0.011827378 0.10460456 0.09875296 0.04087569
000010 ae e6 d9 bd 0a e2 55 bd 09 04 cd 3c 57 04 c4 bd
       -0.10639702 -0.05221752 0.025026338 -0.0957114

psi.4.5.log_gamma f4 [8]
000000 3b 94 ba 3d 79 9b 8d 3c e5 2b 2c 3d 29 87 33 3d
       0.09110304 0.01728605 0.04203405 0.04383007
000010 da a4 87 3d 58 99 0d 3d 63 c3 60 3d b2 d6 ce bd
       0.0662324 0.034570068 0.054873835 -0.10099544

psi.5.0.centers f4 [8]
000000 fc 70 ec bf b5 0f c7 bf a2 70 97 bf d2 28 3f bf
       -1.847198 -1.5551668 -1.1831248 -0.7467166
000010 67 46 0f bd 0f 11 0f 3f 57 4c 78 3f 6b 68 f8 3e
       -0.03497925 0.55885404 0.96991485 0.48517165

psi.5.0.weights f4 [8]
000000 c1 a8 f6 3e 80 7e cf 3e e0 05 91 3e 94 70 8e 3d
       0.48175624 0.405262 0.28324795 0.06955066
000010 fa 45 21 be c8 b4 c8 3d a9 6f 77 3e e5 9a 35 bc
       -0.1574935 0.09800106 0.24163689 -0.011084293

psi.5.0.log_gamma f4 [8]
000000 cd 5f 4d be 19 77 50 bd ef 36 ae 3e db 0b 15 3d
       -0.20056076 -0.05089483 0.34026286 0.03638826
000010 e5 c7 b2 3c fa 17 b2 3c 05 97 0e be 1b 69 cc 3d
       0.021823833 0.021739949 -0.13924797 0.09980985

psi.5.1.centers f4 [8]
000000 57 69 cf bf 22 60 aa bf 87 e2 7f bf 18 6e f3 be
       -1.6204022 -1.3310587 -0.9995503 -0.47544932
000010 21 65 96 3e 55 85 e1 3e c9 46 82 3e 9a 3f 99 3e
       0.2937403 0.44047037 0.2544463 0.29931337

psi.5.1.weights f4 [8]
000000 b5 d1 8f be e5 12 42 be e9 7b d3 bd 4c 74 7e bd
       -0.2808968 -0.1895252 -0.10326368 -0.062122628
000010 8a 1d e9 bd 8a d3 be bd b8 d5 7b 39 00 b8 04 bc
       -0.11382587 -0.093176916 0.00024016842 -0.00810051

psi.5.1.log_gamma f4 [8]
000000 fd 05 e3 3b 87 91 1e 3e e0 01 6d 3e b0 5f b7 bd
       0.006928204 0.15485202 0.23145247 -0.08953798
000010 0b 4d eb 3d 97 26 93 3e a1 eb b5 3d de d7 f1 3d
       0.11489304 0.2874038 0.08882833 0.118087515

psi.5.2.centers f4 [8]
000000 be ae c4 bf 55 f4 bf bf 4c 29 84 bf 8b ca 55 3d
       -1.5365827 -1.4996439 -1.0325103 0.052195113
000010 ca c9 be 3e e2 5a 2b 3f 63 72 31 3f 05 f4 93 3f
       0.37263328 0.6693555 0.69315165 1.1558844

psi.5.2.weights f4 [8]
000000 14 2e 2d 3e ff 94 4d 3e a6 94 13 3e a4 48 00 3e
       0.16912109 0.20076369 0.14412174 0.1252771
000010 c3 b5 a7 3d 60 70 9b 3e 82 82 fc 3e d2 b9 c7 bd
       0.08188965 0.30359173 0.4931832 -0.09752239

psi.5.2.log_gamma f4 [8]
000000 41 82 1b 3d 1c 27 0d bc 79 cc e6 3d 87 f4 19 be
       0.037966017 -0.008615281 0.11269469 -0.15034686
000010 7c 89 0a 3e 23 f0 a5 3d 52 d8 33 3e 1c f7 d3 3e
       0.13529009 0.08102443 0.17562988 0.41399467

psi.5.3.centers f4 [8]
000000 0e 8f a6 bf d1 d5 b4 bf 2f 11 85 bf 8d 47 b5 be
       -1.3012407 -1.4127752 -1.0395869 -0.3540615
000010 e7 49 54 be 03 ab 0f 3f f1 ae fa 3e 8d 4a 90 3f
       -0.20731317 0.5612032 0.48961595 1.1272751

psi.5.3.weights f4 [8]
000000 44 e8 64 3d 97 15 c8 3d 89 ca 27 3d 40 76 1e be
       0.05588557 0.09769743 0.040964637 -0.15474796
000010 5c ec d4 be 83 5f 33 be 73 fd bf 3d 73 35 72 be
       -0.41586578 -0.17516904 0.093745135 -0.23653202

psi.5.3.log_gamma f4 [8]
000000 b5 2a 05 3e cb f2 d8 3d 69 d6 7c 3e 1c 33 b4 3e
       0.13004573 0.10593184 0.24691166 0.35195243
000010 31 e5 49 3e 6e 53 c5 be e5 a4 92 3e 94 72 14 3e
       0.19716336 -0.38540214 0.2864143 0.14496833

psi.5.4.centers f4 [8]
000000 1d 5e d2 bf b2 25 b5 bf ea ae 74 bf 27 49 42 bf
       -1.6434971 -1.4152129 -0.955794 -0.7589287
000010 d9 ea b3 3e 0b c9 48 3f d2 c2 8a 3f af 44 c8 3f
       0.35140112 0.7843177 1.0840704 1.564596

psi.5.4.weights f4 [8]
000000 48 82 f4 3e de ba ee 3e 00 2f c9 3e 70 77 87 3e
       0.47755647 0.46626943 0.3929367 0.2645831
000010 48 30 6a be f3 95 50 be 39 fc 81 be d3 3d 2b bf
       -0.2286998 -0.20369701 -0.25387743 -0.6689121

psi.5.4.log_gamma f4 [8]
000000 d0 20 87 be 7a 60 55 be de 99 4f 3e 2c d8 88 3e
       -0.2639222 -0.20837584 0.2027354 0.26727426
000010 3a 89 3b 3e a3 49 07 be 5f 17 14 be 88 ef 93 be
       0.18314067 -0.13211684 -0.1446204 -0.28893685

psi.5.5.centers f4 [8]
000000 56 30 46 bf c8 59 a1 bf 33 79 62 bf d7 80 11 bc
       -0.77417505 -1.2605524 -0.88466185 -0.0088808155
000010 33 3a 9c 3e 4c c8 24 3f 70 e9 24 3f b5 8d a1 3f
       0.30513152 0.6436813 0.644187 1.262137

psi.5.5.weights f4 [8]
000000 9e c7 41 3c ea 3a d6 3d fe 3e ca 3d 44 6d 27 3d
       0.011827378 0.10460456 0.09875296 0.04087569
000010 ae e6 d9 bd 0a e2 55 bd 09 04 cd 3c 57 04 c4 bd
       -0.10639702 -0.05221752 0.025026338 -0.0957114

psi.5.5.log_gamma f4 [8]
000000 3b 94 ba 3d 79 9b 8d 3c e5 2b 2c 3d 29 87 33 3d
       0.09110304 0.01728605 0.04203405 0.04383007
000010 da a4 87 3d 58 99 0d 3d 63 c3 60 3d b2 d6 ce bd
       0.0662324 0.034570068 0.054873835 -0.10099544

phi.0.centers f4 [8]
000000 3e 67 bd bf 85 67 97 bf 49 64 23 bf de 36 89 be
       -1.4797132 -1.1828467 -0.638249 -0.26799673
000010 8d 25 0c 3f b2 8a 8a 3f d4 9b cf 3f 2c cf 00 40
       0.547448 1.0823576 1.621943 2.0126448

phi.0.weights f4 [8]
000000 a2 92 1d 3e 2b e6 47 3e ac f7 96 3e 1b df 9c 3e
       0.15387967 0.19521396 0.29485834 0.30638966
000010 58 9d e4 bc 3e bd 45 be 93 12 87 be 98 1d 9f be
       -0.027907059 -0.19310471 -0.26381359 -0.31077266

phi.0.log_gamma f4 [8]
000000 87 f7 15 be 26 b4 b5 be 89 0f 85 be be 50 ac 3d
       -0.14645205 -0.35489005 -0.25988415 0.08413838
000010 9d ef c3 3d 92 cd 8f 3e 39 31 8b bd 5f de 38 be
       0.09567187 0.28086525 -0.06796498 -0.18053578

phi.1.centers f4 [8]
000000 3e 67 bd bf 85 67 97 bf 49 64 23 bf de 36 89 be
       -1.4797132 -1.1828467 -0.638249 -0.26799673
000010 8d 25 0c 3f b2 8a 8a 3f d4 9b cf 3f 2c cf 00 40
       0.547448 1.0823576 1.621943 2.0126448

phi.1.weights f4 [8]
000000 a2 92 1d 3e 2b e6 47 3e ac f7 96 3e 1b df 9c 3e
       0.15387967 0.19521396 0.29485834 0.30638966
000010 58 9d e4 bc 3e bd 45 be 93 12 87 be 98 1d 9f be
       -0.027907059 -0.19310471 -0.26381359 -0.31077266

phi.1.log_gamma f4 [8]
000000 87 f7 15 be 26 b4 b5 be 89 0f 85 be be 50 ac 3d
       -0.14645205 -0.35489005 -0.25988415 0.08413838
000010 9d ef c3 3d 92 cd 8f 3e 39 31 8b bd 5f de 38 be
       0.09567187 0.28086525 -0.06796498 -0.18053578

phi.2.centers f4 [8]
000000 3e 67 bd bf 85 67 97 bf 49 64 23 bf de 36 89 be
       -1.4797132 -1.1828467 -0.638249 -0.26799673
000010 8d 25 0c 3f b2 8a 8a 3f d4 9b cf 3f 2c cf 00 40
       0.547448 1.0823576 1.621943 2.0126448

phi.2.weights f4 [8]
000000 a2 92 1d 3e 2b e6 47 3e ac f7 96 3e 1b df 9c 3e
       0.15387967 0.19521396 0.29485834 0.30638966
000010 58 9d e4 bc 3e bd 45 be 93 12 87 be 98 1d 9f be
       -0.027907059 -0.19310471 -0.26381359 -0.31077266

phi.2.log_gamma f4 [8]
000000 87 f7 15 be 26 b4 b5 be 89 0f 85 be be 50 ac 3d
       -0.14645205 -0.35489005 -0.25988415 0.08413838
000010 9d ef c3 3d 92 cd 8f 3e 39 31 8b bd 5f de 38 be
       0.09567187 0.28086525 -0.06796498 -0.18053578

phi.3.centers f4 [8]
000000 3e 67 bd bf 85 67 97 bf 49 64 23 bf de 36 89 be
       -1.4797132 -1.1828467 -0.638249 -0.26799673
000010 8d 25 0c 3f b2 8a 8a 3f d4 9b cf 3f 2c cf 00 40
       0.547448 1.0823576 1.621943 2.0126448

phi.3.weights f4 [8]
000000 a2 92 1d 3e 2b e6 47 3e ac f7 96 3e 1b df 9c 3e
       0.15387967 0.19521396 0.29485834 0.30638966
000010 58 9d e4 bc 3e bd 45 be 93 12 87 be 98 1d 9f be
       -0.027907059 -0.19310471 -0.26381359 -0.31077266

phi.3.log_gamma f4 [8]
000000 87 f7 15 be 26 b4 b5 be 89 0f 85 be be 50 ac 3d
       -0.14645205 -0.35489005 -0.25988415 0.08413838
000010 9d ef c3 3d 92 cd 8f 3e 39 31 8b bd 5f de 38 be
       0.09567187 0.28086525 -0.06796498 -0.18053578

phi.4.centers f4 [8]
000000 3e 67 bd bf 85 67 97 bf 49 64 23 bf de 36 89 be
       -1.4797132 -1.1828467 -0.638249 -0.26799673
000010 8d 25 0c 3f b2 8a 8a 3f d4 9b cf 3f 2c cf 00 40
       0.547448 1.0823576 1.621943 2.0126448

phi.4.weights f4 [8]
000000 a2 92 1d 3e 2b e6 47 3e ac f7 96 3e 1b df 9c 3e
       0.15387967 0.19521396 0.29485834 0.30638966
000010 58 9d e4 bc 3e bd 45 be 93 12 87 be 98 1d 9f be
       -0.027907059 -0.19310471 -0.26381359 -0.31077266

phi.4.log_gamma f4 [8]
000000 87 f7 15 be 26 b4 b5 be 89 0f 85 be be 50 ac 3d
       -0.14645205 -0.35489005 -0.25988415 0.08413838
000010 9d ef c3 3d 92 cd 8f 3e 39 31 8b bd 5f de 38 be
       0.09567187 0.28086525 -0.06796498 -0.18053578

phi.5.centers f4 [8]
000000 3e 67 bd bf 85 67 97 bf 49 64 23 bf de 36 89 be
       -1.4797132 -1.1828467 -0.638249 -0.26799673
000010 8d 25 0c 3f b2 8a 8a 3f d4 9b cf 3f 2c cf 00 40
       0.547448 1.0823576 1.621943 2.0126448

phi.5.weights f4 [8]
000000 a2 92 1d 3e 2b e6 47 3e ac f7 96 3e 1b df 9c 3e
       0.15387967 0.19521396 0.29485834 0.30638966
000010 58 9d e4 bc 3e bd 45 be 93 12 87 be 98 1d 9f be
       -0.027907059 -0.19310471 -0.26381359 -0.31077266

phi.5.log_gamma f4 [8]
000000 87 f7 15 be 26 b4 b5 be 89 0f 85 be be 50 ac 3d
       -0.14645205 -0.35489005 -0.25988415 0.08413838
000010 9d ef c3 3d 92 cd 8f 3e 39 31 8b bd 5f de 38 be
       0.09567187 0.28086525 -0.06796498 -0.18053578
